{"format": "torch", "nodes": [{"name": "bert", "id": 140091275685648, "class_name": "CaMtlBaseEncoder(\n  (task_type_embeddings): Embedding(5, 768)\n  (conditional_alignment): FiLM(\n    (gb_weights): Linear(in_features=768, out_features=1536, bias=True)\n  )\n  (embeddings): BertEmbeddings(\n    (word_embeddings): Embedding(30522, 768, padding_idx=0)\n    (position_embeddings): Embedding(512, 768)\n    (token_type_embeddings): Embedding(2, 768)\n    (LayerNorm): LayerNorm((768,), eps=1e-12, elementwise_affine=True)\n    (dropout): Dropout(p=0.1, inplace=False)\n  )\n  (encoder): MyBertEncoder9(\n    (task_transformation): Linear(in_features=768, out_features=768, bias=True)\n    (layer): ModuleList(\n      (0): BertLayer9(\n        (attention): MyBertAttention9(\n          (self): MyBertSelfAttention9(\n            (query): Linear(in_features=768, out_features=768, bias=True)\n            (key): Linear(in_features=768, out_features=768, bias=True)\n            (value): Linear(in_features=768, out_features=768, bias=True)\n            (dropout): Dropout(p=0.1, inplace=False)\n            (cond_block_diag_attn): CBDA(\n              (gb_weights): Linear(in_features=768, out_features=172, bias=True)\n            )\n          )\n          (output): BertSelfOutput(\n            (dense): Linear(in_features=768, out_features=768, bias=True)\n            (LayerNorm): LayerNorm((768,), eps=1e-12, elementwise_affine=True)\n            (dropout): Dropout(p=0.1, inplace=False)\n          )\n        )\n        (intermediate): BertIntermediate(\n          (dense): Linear(in_features=768, out_features=3072, bias=True)\n        )\n        (output): BertOutput(\n          (dense): Linear(in_features=3072, out_features=768, bias=True)\n          (LayerNorm): LayerNorm((768,), eps=1e-12, elementwise_affine=True)\n          (dropout): Dropout(p=0.1, inplace=False)\n        )\n      )\n      (1): BertLayer9(\n        (attention): MyBertAttention9(\n          (self): MyBertSelfAttention9(\n            (query): Linear(in_features=768, out_features=768, bias=True)\n            (key): Linear(in_features=768, out_features=768, bias=True)\n            (value): Linear(in_features=768, out_features=768, bias=True)\n            (dropout): Dropout(p=0.1, inplace=False)\n            (cond_block_diag_attn): CBDA(\n              (gb_weights): Linear(in_features=768, out_features=172, bias=True)\n            )\n          )\n          (output): BertSelfOutput(\n            (dense): Linear(in_features=768, out_features=768, bias=True)\n            (LayerNorm): LayerNorm((768,), eps=1e-12, elementwise_affine=True)\n            (dropout): Dropout(p=0.1, inplace=False)\n          )\n        )\n        (intermediate): BertIntermediate(\n          (dense): Linear(in_features=768, out_features=3072, bias=True)\n        )\n        (output): BertOutput(\n          (dense): Linear(in_features=3072, out_features=768, bias=True)\n          (LayerNorm): LayerNorm((768,), eps=1e-12, elementwise_affine=True)\n          (dropout): Dropout(p=0.1, inplace=False)\n        )\n      )\n      (2): BertLayer9(\n        (attention): MyBertAttention9(\n          (self): MyBertSelfAttention9(\n            (query): Linear(in_features=768, out_features=768, bias=True)\n            (key): Linear(in_features=768, out_features=768, bias=True)\n            (value): Linear(in_features=768, out_features=768, bias=True)\n            (dropout): Dropout(p=0.1, inplace=False)\n            (cond_block_diag_attn): CBDA(\n              (gb_weights): Linear(in_features=768, out_features=172, bias=True)\n            )\n          )\n          (output): BertSelfOutput(\n            (dense): Linear(in_features=768, out_features=768, bias=True)\n            (LayerNorm): LayerNorm((768,), eps=1e-12, elementwise_affine=True)\n            (dropout): Dropout(p=0.1, inplace=False)\n          )\n        )\n        (intermediate): BertIntermediate(\n          (dense): Linear(in_features=768, out_features=3072, bias=True)\n        )\n        (output): BertOutput(\n          (dense): Linear(in_features=3072, out_features=768, bias=True)\n          (LayerNorm): LayerNorm((768,), eps=1e-12, elementwise_affine=True)\n          (dropout): Dropout(p=0.1, inplace=False)\n        )\n      )\n      (3): MyBertLayer9(\n        (attention): MyBertAttention9(\n          (self): MyBertSelfAttention9(\n            (query): Linear(in_features=768, out_features=768, bias=True)\n            (key): Linear(in_features=768, out_features=768, bias=True)\n            (value): Linear(in_features=768, out_features=768, bias=True)\n            (dropout): Dropout(p=0.1, inplace=False)\n            (cond_block_diag_attn): CBDA(\n              (gb_weights): Linear(in_features=768, out_features=172, bias=True)\n            )\n          )\n          (output): MyBertSelfOutput9(\n            (dense): Linear(in_features=768, out_features=768, bias=True)\n            (LayerNorm): ConditionalLayerNorm(\n              (768,), 768, eps=1e-12\n              (ln_weight_modulation): FiLM(\n                (gb_weights): Linear(in_features=768, out_features=1536, bias=True)\n              )\n            )\n            (dropout): Dropout(p=0.1, inplace=False)\n          )\n        )\n        (intermediate): BertIntermediate(\n          (dense): Linear(in_features=768, out_features=3072, bias=True)\n        )\n        (output): MyBertOutput9(\n          (dense): Linear(in_features=3072, out_features=768, bias=True)\n          (LayerNorm): ConditionalLayerNorm(\n            (768,), 768, eps=1e-12\n            (ln_weight_modulation): FiLM(\n              (gb_weights): Linear(in_features=768, out_features=1536, bias=True)\n            )\n          )\n          (dropout): Dropout(p=0.1, inplace=False)\n        )\n      )\n      (4): MyBertLayer9(\n        (attention): MyBertAttention9(\n          (self): MyBertSelfAttention9(\n            (query): Linear(in_features=768, out_features=768, bias=True)\n            (key): Linear(in_features=768, out_features=768, bias=True)\n            (value): Linear(in_features=768, out_features=768, bias=True)\n            (dropout): Dropout(p=0.1, inplace=False)\n            (cond_block_diag_attn): CBDA(\n              (gb_weights): Linear(in_features=768, out_features=172, bias=True)\n            )\n          )\n          (output): MyBertSelfOutput9(\n            (dense): Linear(in_features=768, out_features=768, bias=True)\n            (LayerNorm): ConditionalLayerNorm(\n              (768,), 768, eps=1e-12\n              (ln_weight_modulation): FiLM(\n                (gb_weights): Linear(in_features=768, out_features=1536, bias=True)\n              )\n            )\n            (dropout): Dropout(p=0.1, inplace=False)\n          )\n        )\n        (intermediate): BertIntermediate(\n          (dense): Linear(in_features=768, out_features=3072, bias=True)\n        )\n        (output): MyBertOutput9(\n          (dense): Linear(in_features=3072, out_features=768, bias=True)\n          (LayerNorm): ConditionalLayerNorm(\n            (768,), 768, eps=1e-12\n            (ln_weight_modulation): FiLM(\n              (gb_weights): Linear(in_features=768, out_features=1536, bias=True)\n            )\n          )\n          (dropout): Dropout(p=0.1, inplace=False)\n        )\n      )\n      (5): MyBertAdapterLayer9(\n        (new_attention): MyBertAttention9(\n          (self): MyBertSelfAttention9(\n            (query): Linear(in_features=768, out_features=768, bias=True)\n            (key): Linear(in_features=768, out_features=768, bias=True)\n            (value): Linear(in_features=768, out_features=768, bias=True)\n            (dropout): Dropout(p=0.1, inplace=False)\n            (cond_block_diag_attn): CBDA(\n              (gb_weights): Linear(in_features=768, out_features=172, bias=True)\n            )\n          )\n          (output): MyBertSelfOutput9(\n            (dense): Linear(in_features=768, out_features=768, bias=True)\n            (LayerNorm): ConditionalLayerNorm(\n              (768,), 768, eps=1e-12\n              (ln_weight_modulation): FiLM(\n                (gb_weights): Linear(in_features=768, out_features=1536, bias=True)\n              )\n            )\n            (dropout): Dropout(p=0.1, inplace=False)\n          )\n        )\n        (new_intermediate): BertIntermediate(\n          (dense): Linear(in_features=768, out_features=3072, bias=True)\n        )\n        (new_output): MyBertOutput9(\n          (dense): Linear(in_features=3072, out_features=768, bias=True)\n          (LayerNorm): ConditionalLayerNorm(\n            (768,), 768, eps=1e-12\n            (ln_weight_modulation): FiLM(\n              (gb_weights): Linear(in_features=768, out_features=1536, bias=True)\n            )\n          )\n          (dropout): Dropout(p=0.1, inplace=False)\n        )\n        (adapter): BertAdapter9(\n          (bottleneck): ConditionalBottleNeck(\n            (emb_transf): Linear(in_features=768, out_features=768, bias=True)\n            (hidden_modulation): FiLM(\n              (gb_weights): Linear(in_features=768, out_features=1536, bias=True)\n            )\n            (down_proj_layer): Linear(in_features=768, out_features=256, bias=True)\n            (up_proj_layer): Linear(in_features=256, out_features=768, bias=True)\n          )\n          (condlayernorm): ConditionalLayerNorm(\n            (768,), 768, eps=1e-12\n            (ln_weight_modulation): FiLM(\n              (gb_weights): Linear(in_features=768, out_features=1536, bias=True)\n            )\n          )\n        )\n      )\n    )\n  )\n  (pooler): BertPooler(\n    (dense): Linear(in_features=768, out_features=768, bias=True)\n    (activation): Tanh()\n  )\n)", "parameters": [["task_type_embeddings.weight", [5, 768]], ["conditional_alignment.gb_weights.weight", [1536, 768]], ["conditional_alignment.gb_weights.bias", [1536]], ["embeddings.word_embeddings.weight", [30522, 768]], ["embeddings.position_embeddings.weight", [512, 768]], ["embeddings.token_type_embeddings.weight",
…
