…
'bert.encoder.layer.5.attention.output.dense.weight', 'bert.encoder.layer.5.attention.output.dense.bias', 'bert.encoder.layer.5.attention.output.LayerNorm.weight', 'bert.encoder.layer.5.attention.output.LayerNorm.bias', 'bert.encoder.layer.5.intermediate.dense.weight', 'bert.encoder.layer.5.intermediate.dense.bias', 'bert.encoder.layer.5.output.dense.weight', 'bert.encoder.layer.5.output.dense.bias', 'bert.encoder.layer.5.output.LayerNorm.weight', 'bert.encoder.layer.5.output.LayerNorm.bias']
04/12/2021 07:09:49 - INFO - __main__ -   CaMtl(
  (bert): CaMtlBaseEncoder(
    (task_type_embeddings): Embedding(2, 768)
    (conditional_alignment): FiLM(
      (gb_weights): Linear(in_features=768, out_features=1536, bias=True)
    )
    (embeddings): BertEmbeddings(
      (word_embeddings): Embedding(30522, 768, padding_idx=0)
      (position_embeddings): Embedding(512, 768)
      (token_type_embeddings): Embedding(2, 768)
      (LayerNorm): LayerNorm((768,), eps=1e-12, elementwise_affine=True)
      (dropout): Dropout(p=0.1, inplace=False)
    )
    (encoder): MyBertEncoder9(
      (task_transformation): Linear(in_features=768, out_features=768, bias=True)
      (layer): ModuleList(
        (0): BertLayer9(
          (attention): MyBertAttention9(
            (self): MyBertSelfAttention9(
              (query): Linear(in_features=768, out_features=768, bias=True)
              (key): Linear(in_features=768, out_features=768, bias=True)
              (value): Linear(in_features=768, out_features=768, bias=True)
              (dropout): Dropout(p=0.1, inplace=False)
              (cond_block_diag_attn): CBDA(
                (gb_weights): Linear(in_features=768, out_features=172, bias=True)
              )
            )
            (output): BertSelfOutput(
              (dense): Linear(in_features=768, out_features=768, bias=True)
              (LayerNorm): LayerNorm((768,), eps=1e-12, elementwise_affine=True)
              (dropout): Dropout(p=0.1, inplace=False)
            )
          )
          (intermediate): BertIntermediate(
            (dense): Linear(in_features=768, out_features=3072, bias=True)
          )
          (output): BertOutput(
            (dense): Linear(in_features=3072, out_features=768, bias=True)
            (LayerNorm): LayerNorm((768,), eps=1e-12, elementwise_affine=True)
            (dropout): Dropout(p=0.1, inplace=False)
          )
        )
        (1): BertLayer9(
          (attention): MyBertAttention9(
            (self): MyBertSelfAttention9(
              (query): Linear(in_features=768, out_features=768, bias=True)
              (key): Linear(in_features=768, out_features=768, bias=True)
              (value): Linear(in_features=768, out_features=768, bias=True)
              (dropout): Dropout(p=0.1, inplace=False)
              (cond_block_diag_attn): CBDA(
                (gb_weights): Linear(in_features=768, out_features=172, bias=True)
              )
            )
            (output): BertSelfOutput(
              (dense): Linear(in_features=768, out_features=768, bias=True)
              (LayerNorm): LayerNorm((768,), eps=1e-12, elementwise_affine=True)
              (dropout): Dropout(p=0.1, inplace=False)
            )
          )
          (intermediate): BertIntermediate(
            (dense): Linear(in_features=768, out_features=3072, bias=True)
          )
          (output): BertOutput(
            (dense): Linear(in_features=3072, out_features=768, bias=True)
            (LayerNorm): LayerNorm((768,), eps=1e-12, elementwise_affine=True)
            (dropout): Dropout(p=0.1, inplace=False)
          )
        )
        (2): BertLayer9(
          (attention): MyBertAttention9(
            (self): MyBertSelfAttention9(
              (query): Linear(in_features=768, out_features=768, bias=True)
              (key): Linear(in_features=768, out_features=768, bias=True)
              (value): Linear(in_features=768, out_features=768, bias=True)
              (dropout): Dropout(p=0.1, inplace=False)
              (cond_block_diag_attn): CBDA(
                (gb_weights): Linear(in_features=768, out_features=172, bias=True)
              )
            )
            (output): BertSelfOutput(
              (dense): Linear(in_features=768, out_features=768, bias=True)
              (LayerNorm): LayerNorm((768,), eps=1e-12, elementwise_affine=True)
              (dropout): Dropout(p=0.1, inplace=False)
            )
          )
          (intermediate): BertIntermediate(
            (dense): Linear(in_features=768, out_features=3072, bias=True)
          )
          (output): BertOutput(
            (dense): Linear(in_features=3072, out_features=768, bias=True)
            (LayerNorm): LayerNorm((768,), eps=1e-12, elementwise_affine=True)
            (dropout): Dropout(p=0.1, inplace=False)
          )
        )
        (3): MyBertLayer9(
          (attention): MyBertAttention9(
            (self): MyBertSelfAttention9(
              (query): Linear(in_features=768, out_features=768, bias=True)
              (key): Linear(in_features=768, out_features=768, bias=True)
              (value): Linear(in_features=768, out_features=768, bias=True)
              (dropout): Dropout(p=0.1, inplace=False)
              (cond_block_diag_attn): CBDA(
                (gb_weights): Linear(in_features=768, out_features=172, bias=True)
              )
            )
            (output): MyBertSelfOutput9(
              (dense): Linear(in_features=768, out_features=768, bias=True)
              (LayerNorm): ConditionalLayerNorm(
                (768,), 768, eps=1e-12
                (ln_weight_modulation): FiLM(
                  (gb_weights): Linear(in_features=768, out_features=1536, bias=True)
                )
              )
              (dropout): Dropout(p=0.1, inplace=False)
            )
          )
          (intermediate): BertIntermediate(
            (dense): Linear(in_features=768, out_features=3072, bias=True)
          )
          (output): MyBertOutput9(
            (dense): Linear(in_features=3072, out_features=768, bias=True)
            (LayerNorm): ConditionalLayerNorm(
              (768,), 768, eps=1e-12
              (ln_weight_modulation): FiLM(
                (gb_weights): Linear(in_features=768, out_features=1536, bias=True)
              )
            )
            (dropout): Dropout(p=0.1, inplace=False)
          )
        )
        (4): MyBertLayer9(
          (attention): MyBertAttention9(
            (self): MyBertSelfAttention9(
              (query): Linear(in_features=768, out_features=768, bias=True)
              (key): Linear(in_features=768, out_features=768, bias=True)
              (value): Linear(in_features=768, out_features=768, bias=True)
              (dropout): Dropout(p=0.1, inplace=False)
              (cond_block_diag_attn): CBDA(
                (gb_weights): Linear(in_features=768, out_features=172, bias=True)
              )
            )
            (output): MyBertSelfOutput9(
              (dense): Linear(in_features=768, out_features=768, bias=True)
              (LayerNorm): ConditionalLayerNorm(
                (768,), 768, eps=1e-12
                (ln_weight_modulation): FiLM(
                  (gb_weights): Linear(in_features=768, out_features=1536, bias=True)
                )
              )
              (dropout): Dropout(p=0.1, inplace=False)
            )
          )
          (intermediate): BertIntermediate(
            (dense): Linear(in_features=768, out_features=3072, bias=True)
          )
          (output): MyBertOutput9(
            (dense): Linear(in_features=3072, out_features=768, bias=True)
            (LayerNorm): ConditionalLayerNorm(
              (768,), 768, eps=1e-12
              (ln_weight_modulation): FiLM(
                (gb_weights): Linear(in_features=768, out_features=1536, bias=True)
              )
            )
            (dropout): Dropout(p=0.1, inplace=False)
          )
        )
        (5): MyBertAdapterLayer9(
          (new_attention): MyBertAttention9(
            (self): MyBertSelfAttention9(
              (query): Linear(in_features=768, out_features=768, bias=True)
              (key): Linear(in_features=768, out_features=768, bias=True)
              (value): Linear(in_features=768, out_features=768, bias=True)
              (dropout): Dropout(p=0.1, inplace=False)
              (cond_block_diag_attn): CBDA(
                (gb_weights): Linear(in_features=768, out_features=172, bias=True)
              )
            )
            (output): MyBertSelfOutput9(
              (dense): Linear(in_features=768, out_features=768, bias=True)
              (LayerNorm): ConditionalLayerNorm(
                (768,), 768, eps=1e-12
                (ln_weight_modulation): FiLM(
                  (gb_weights): Linear(in_features=768, out_features=1536, bias=True)
                )
              )
              (dropout): Dropout(p=0.1, inplace=False)
            )
          )
          (new_intermediate): BertIntermediate(
            (dense): Linear(in_features=768, out_features=3072, bias=True)
          )
          (new_output): MyBertOutput9(
            (dense): Linear(in_features=3072, out_features=768, bias=True)
            (LayerNorm): ConditionalLayerNorm(
              (768,), 768, eps=1e-12
              (ln_weight_modulation): FiLM(
                (gb_weights): Linear(in_features=768, out_features=1536, bias=True)
              )
            )
            (dropout): Dropout(p=0.1, inplace=False)
          )
          (adapter): BertAdapter9(
            (bottleneck): ConditionalBottleNeck(
              (emb_transf): Linear(in_features=768, out_features=768, bias=True)
              (hidden_modulation): FiLM(
                (gb_weights): Linear(in_features=768, out_features=1536, bias=True)
              )
              (down_proj_layer): Linear(in_features=768, out_features=256, bias=True)
              (up_proj_layer): Linear(in_features=256, out_features=768, bias=True)
            )
            (condlayernorm): ConditionalLayerNorm(
              (768,), 768, eps=1e-12
              (ln_weight_modulation): FiLM(
                (gb_weights): Linear(in_features=768, out_features=1536, bias=True)
              )
            )
          )
        )
      )
    )
    (pooler): BertPooler(
      (dense): Linear(in_features=768, out_features=768, bias=True)
      (activation): Tanh()
    )
  )
  (decoders): ModuleList(
    (0): Decoder(
      (dropout): Dropout(p=0.1, inplace=False)
      (model): Linear(in_features=768, out_features=17, bias=True)
    )
    (1): Decoder(
      (dropout): Dropout(p=0.1, inplace=False)
      (model): Linear(in_features=768, out_features=114, bias=True)
    )
  )
)
04/12/2021 07:09:49 - INFO - transformers.tokenization_utils -   Model name 'huawei-noah/TinyBERT_General_6L_768D' not found in model shortcut name list (bert-base-uncased, bert-large-uncased, bert-base-cased, bert-large-cased, bert-base-multilingual-uncased, bert-base-multilingual-cased, bert-base-chinese, bert-base-german-cased, bert-larg
…
